time_pre 0.000199
time_model 0.018206
time_sim 0.006284
time_all 0.024689
Img: /home/ubuntu/datasets/DADdataset/DAD/DAD/val01/rec1/front_depth/img_26.png | score: 0.69 | Action: Distracted
out.size() torch.Size([1, 64, 8, 28, 28])
SELayer(
  (avg_pool): AdaptiveAvgPool3d(output_size=1)
  (fc): Sequential(
    (0): Linear(in_features=64, out_features=8, bias=True)
    (1): ReLU(inplace=True)
    (2): Linear(in_features=8, out_features=64, bias=True)
    (3): Sigmoid()
  )
)
out.size() torch.Size([1, 64, 8, 28, 28])
SELayer(
  (avg_pool): AdaptiveAvgPool3d(output_size=1)
  (fc): Sequential(
    (0): Linear(in_features=64, out_features=8, bias=True)
    (1): ReLU(inplace=True)
    (2): Linear(in_features=8, out_features=64, bias=True)
    (3): Sigmoid()
  )
)
out.size() torch.Size([1, 128, 4, 14, 14])
SELayer(
  (avg_pool): AdaptiveAvgPool3d(output_size=1)
  (fc): Sequential(
    (0): Linear(in_features=128, out_features=16, bias=True)
    (1): ReLU(inplace=True)
    (2): Linear(in_features=16, out_features=128, bias=True)
    (3): Sigmoid()
  )
)
out.size() torch.Size([1, 128, 4, 14, 14])
SELayer(
  (avg_pool): AdaptiveAvgPool3d(output_size=1)
  (fc): Sequential(
    (0): Linear(in_features=128, out_features=16, bias=True)
    (1): ReLU(inplace=True)
    (2): Linear(in_features=16, out_features=128, bias=True)
    (3): Sigmoid()
  )
)
out.size() torch.Size([1, 256, 2, 7, 7])
SELayer(
  (avg_pool): AdaptiveAvgPool3d(output_size=1)
  (fc): Sequential(
    (0): Linear(in_features=256, out_features=32, bias=True)
    (1): ReLU(inplace=True)
    (2): Linear(in_features=32, out_features=256, bias=True)
    (3): Sigmoid()
  )
)
out.size() torch.Size([1, 256, 2, 7, 7])
SELayer(
  (avg_pool): AdaptiveAvgPool3d(output_size=1)
  (fc): Sequential(
    (0): Linear(in_features=256, out_features=32, bias=True)
    (1): ReLU(inplace=True)
    (2): Linear(in_features=32, out_features=256, bias=True)
    (3): Sigmoid()
  )
)
out.size() torch.Size([1, 512, 1, 4, 4])
SELayer(
  (avg_pool): AdaptiveAvgPool3d(output_size=1)
  (fc): Sequential(
    (0): Linear(in_features=512, out_features=64, bias=True)
    (1): ReLU(inplace=True)
    (2): Linear(in_features=64, out_features=512, bias=True)
    (3): Sigmoid()
  )
)
out.size() torch.Size([1, 512, 1, 4, 4])
SELayer(
  (avg_pool): AdaptiveAvgPool3d(output_size=1)
  (fc): Sequential(
    (0): Linear(in_features=512, out_features=64, bias=True)
    (1): ReLU(inplace=True)
    (2): Linear(in_features=64, out_features=512, bias=True)
    (3): Sigmoid()
  )
)
time_pre 0.000195
time_model 0.018133
time_sim 0.00632
time_all 0.024649
Img: /home/ubuntu/datasets/DADdataset/DAD/DAD/val01/rec1/front_depth/img_27.png | score: 0.69 | Action: Distracted
out.size() torch.Size([1, 64, 8, 28, 28])
SELayer(
  (avg_pool): AdaptiveAvgPool3d(output_size=1)
  (fc): Sequential(
    (0): Linear(in_features=64, out_features=8, bias=True)
    (1): ReLU(inplace=True)
    (2): Linear(in_features=8, out_features=64, bias=True)
    (3): Sigmoid()
  )
)
out.size() torch.Size([1, 64, 8, 28, 28])
SELayer(
  (avg_pool): AdaptiveAvgPool3d(output_size=1)
  (fc): Sequential(
    (0): Linear(in_features=64, out_features=8, bias=True)
    (1): ReLU(inplace=True)
    (2): Linear(in_features=8, out_features=64, bias=True)
    (3): Sigmoid()
  )
)
out.size() torch.Size([1, 128, 4, 14, 14])
SELayer(
  (avg_pool): AdaptiveAvgPool3d(output_size=1)
  (fc): Sequential(
    (0): Linear(in_features=128, out_features=16, bias=True)
    (1): ReLU(inplace=True)
    (2): Linear(in_features=16, out_features=128, bias=True)
    (3): Sigmoid()
  )
)
out.size() torch.Size([1, 128, 4, 14, 14])
SELayer(
  (avg_pool): AdaptiveAvgPool3d(output_size=1)
  (fc): Sequential(
    (0): Linear(in_features=128, out_features=16, bias=True)
    (1): ReLU(inplace=True)
    (2): Linear(in_features=16, out_features=128, bias=True)
    (3): Sigmoid()
  )
)
out.size() torch.Size([1, 256, 2, 7, 7])
SELayer(
  (avg_pool): AdaptiveAvgPool3d(output_size=1)
  (fc): Sequential(
    (0): Linear(in_features=256, out_features=32, bias=True)
    (1): ReLU(inplace=True)
    (2): Linear(in_features=32, out_features=256, bias=True)
    (3): Sigmoid()
  )
)
out.size() torch.Size([1, 256, 2, 7, 7])
SELayer(
  (avg_pool): AdaptiveAvgPool3d(output_size=1)
  (fc): Sequential(
    (0): Linear(in_features=256, out_features=32, bias=True)
    (1): ReLU(inplace=True)
    (2): Linear(in_features=32, out_features=256, bias=True)
    (3): Sigmoid()
  )
)
out.size() torch.Size([1, 512, 1, 4, 4])
SELayer(
  (avg_pool): AdaptiveAvgPool3d(output_size=1)
  (fc): Sequential(
    (0): Linear(in_features=512, out_features=64, bias=True)
    (1): ReLU(inplace=True)
    (2): Linear(in_features=64, out_features=512, bias=True)
    (3): Sigmoid()
  )
)
out.size() torch.Size([1, 512, 1, 4, 4])
SELayer(
  (avg_pool): AdaptiveAvgPool3d(output_size=1)
  (fc): Sequential(
    (0): Linear(in_features=512, out_features=64, bias=True)
    (1): ReLU(inplace=True)
    (2): Linear(in_features=64, out_features=512, bias=True)
    (3): Sigmoid()
  )
)

